YOLO-VehicleOrientation/Approach2/Models/ratio_net_model.pth (torch, 46176 bytes, 7 tensors)

inlayer.weight f4 [32, 4]
00000000: 3ee6 9bbe 2e4d acbf 1be5 753e 4e88 813f
00000010: 3039 bbbd 0064 e2bd 0044 eabd 644d 51be
00000020: 7841 55bf c115 f33e 07cd 733f 1db8 443f
00000030: c03f 203c b86a 8f3e 80eb 54bc 0893 bcbd
00000040: 8425 edbe 66a2 943e 00da ffba 40a8 49bd
00000050: 80c1 463c 50c0 c0be 52f8 87be bc82 c0be
00000060: bc7a 813e d81e bcbe f09c e13d c002 5d3c
00000070: bc1d 3a3e 4829 e2be 1ed5 d7be a089 e53d
00000080: c283 4bbf 826c ddbe f295 d03e 22ef 3b3f
00000090: 9cb7 383f d46b dfbe 20e5 86be edea 6a3f
000000a0: cec9 0c3f 52da 413f dc8f da3b 89f8 e2be
000000b0: 7cd6 31bf b3ca 983e 91dc 7e3f f6be be3f
000000c0: 94e0 543e c5b7 c0bf 5896 b8be 6ce5 853f
000000d0: 8c3a 503e c07a 9dbd 8046 533c 66b7 9fbe
000000e0: 0402 043f 7f5a 49be e2a5 f43e 7cc8 c83e
000000f0: 36b9 cf3f 7c56 ec3e 67b4 953f 28ed 87be
00000100: 2867 01bf 77b3 94bf f310 653f 2528 2b3f
00000110: efc9 1bbf cf0e 763f a90a 713e 1048 39be
00000120: 097a 86bf ff2e 623e a47c fd3d 191c e23f
00000130: 943c 4b3e c071 adbd 2c9c 57be 9017 c6bd
00000140: c0fc dbbe 165e bbbf ceb0 78bd bab5 853f
00000150: a52c 77be 091d cabf 5872 36be 247e 8c3f
00000160: f183 603e 1219 0bbf 84d8 cd3e 43b8 a53e
00000170: 2aee abbe ce6a c73e 90cb 9dbe 00bf 6b3c
00000180: 8d4f 62bf 41fc f23e 900d 0ec0 8f78 a83f
00000190: a954 df3e 765f 88be f23c 073f 63a3 c8be
000001a0: 8a97 debd b0c0 05bf 840d 683f 7228 883f
000001b0: 4587 c83e bc08 84bf 8269 64bf a16f b03f
000001c0: cca7 103c 44d0 b03e 9f7b 7a3f 2c1b 5f3f
000001d0: 1c47 19bf 4c76 73bf 03eb a5be 695b b93f
000001e0: a172 1e3f 147b bbbe d6e3 c9bc 03b2 3c3f
000001f0: 7abd 4dbf 914c 56be a0e8 d6be 5131 9f3f
-0.30449098 -1.3461053 0.24013178 1.0119722 -0.09141767 -0.1105423 -0.11438751 -0.20439678
-0.8330302 0.47477534 0.9523472 0.76843435 0.009780824 0.28011107 -0.012995601 -0.092077315
-0.46317685 0.2903015 -0.0019519925 -0.04923272 0.012131095 -0.37646723 -0.2655664 -0.37599742
0.2528895 -0.36742282 0.110162616 0.013489425 0.18175405 -0.4417212 -0.42154783 0.112078905
-0.7949792 -0.43246847 0.407394 0.7341176 0.72155166 -0.43636954 -0.26346684 0.9176472
0.5499543 0.75723755 0.0066699814 -0.44330242 -0.694679 0.29842147 0.9955531 1.4902027
0.20788795 -1.5056082 -0.36052203 1.0460639 0.20334834 -0.07689428 0.0128952265 -0.3119461
0.51565576 -0.19663428 0.4778281 0.39215457 1.6228397 0.46159732 1.169568 -0.26548123
-0.5054803 -1.1617268 0.8947899 0.6685813 -0.60855 0.96116346 0.23539223 -0.18093896
-1.0505992 0.2208824 0.12377289 1.7664825 0.19847327 -0.08468962 -0.21055669 -0.09672463
-0.4296627 -1.4638088 -0.06071549 1.0446084 -0.24138124 -1.5790111 -0.17817056 1.0975995
0.21925332 -0.5433513 0.4020425 0.32367143 -0.33580142 0.38948673 -0.30819368 0.0143888
-0.88402635 0.4745808 -2.2195778 1.3161792 0.43619278 -0.2663533 0.5282737 -0.39187154
-0.108687475 -0.5224714 0.90645623 1.0637343 0.39165702 -1.0315166 -0.8922349 1.3784066
0.008829068 0.34533894 0.9784488 0.87150836 -0.5987413 -0.9510238 -0.32405862 1.4481021
0.6189366 -0.3661734 -0.024644773 0.73709124 -0.80367243 -0.20927645 -0.41974354 1.2436925

inlayer.bias f4 [32]
00000000: 1fbe 0d3e c0e3 603d 1870 1c3f 94d3 dbbe
00000010: 5ccb 9ebe b04e 8dbe 2a9c a8be 7cfb cfbe
00000020: cb80 1a3f 09cb 89be 6714 3c3f ee39 e13e
00000030: f1e6 94be d490 fabe 81a2 1d3e 6bed 443e
00000040: 6062 b63e 4634 f9be 0850 383f 2058 84be
00000050: f0fc 773e 82aa f13e 7d9b aa3e 0e44 ccbe
00000060: 815a 153f 427a b83e a779 1ebd bd67 453c
00000070: 17a7 663f 2c5f bd3e 2333 bc3e d0e5 0f3f
0.13842057 0.0549047 0.6110854 -0.4293486 -0.31014526 -0.27599096 -0.32931644 -0.40621555
0.6035277 -0.26912716 0.7346863 0.4398951 -0.29082444 -0.4893862 0.15394022 0.19231193
0.3562193 -0.48672694 0.7199712 -0.25848484 0.24217582 0.472004 0.33321753 -0.39895672
0.58341223 0.36030775 -0.038690235 0.012048659 0.9009871 0.36986673 0.36757764 0.5621004

hidlayer.weight f4 [64, 32]
00000000: 521c e23e 921e c4bd 8d33 acbe bdcb 343e
00000010: 484b 263d 4cd6 19bd d48f 0fbd 2dfb 273e
00000020: 3cf6 b63d 15e5 d33e d801 133d ff5e f33d
00000030: 7b1a 523f 2eeb 63bd fa21 323e 09d6 583f
00000040: d961 da3e 5970 973d 068a c23d 00e6 d5bc
00000050: a439 963e 3c24 653e dbff bb3e 0ce6 3bbd
00000060: 4a3a b4bf 234e b43e 1b32 e93e b7b3 c33d
00000070: fc9f a8bd b341 5c3d f7f9 983e d136 07bd
00000080: 0fde 65bf 42f8 e93d aecc 4c3f 1c39 163d
00000090: 3069 bd3c adec 343e dcc8 4e3d 801b 3bbd
000000a0: c26e 743e 19a6 bdbe f608 ac3f 6133 343f
000000b0: 71ac 88be 1099 563c 20b2 afbe 894e 62bc
000000c0: 51a5 8bbf 194c 8e3f 362b 5d3f e07e 0dbe
000000d0: 1463 43bf 6a0b 5abf 0d99 99bf c33a 0fbd
000000e0: 075d 9c3f 8c57 e4be a64c 56bf 2ab1 7fbf
000000f0: 66b5 193f 3a2e 3cbf 8769 25bf 2f44 f43e
00000100: 22d9 093f 01d4 063e 1511 97bc 60d7 5b3d
00000110: b817 1fbe 8777 283e b858 9cbd a406 333d
00000120: 50e6 953e b694 f23e d7a9 a43d ac63 043e
00000130: f29c 813f 2f33 cfbd f398 8e3e bf77 00bf
00000140: af43 e53d 29c5 b33e bb68 863e 6818 663d
00000150: 813c 9f3e a608 753e ca9a 303d e4ec 11be
00000160: 97b2 8a3e 534c adbe 22db 133e 9084 2c3f
00000170: f075 3c3c 3ba1 5c3e f2cb 8d3e 4760 d43e
00000180: 2dd0 063e 805c cd3a d8a7 513e d48d 433d
00000190: 101c 92bc 8018 28bb 5ef0 cfbd 00e3 273a
000001a0: ba21 de3e 4963 d5bd 3c90 94be 6ce0 b53e
000001b0: 56d1 7b3e 18eb 903c 2577 76bd f550 d03f
000001c0: e220 f83e 64eb 7fbe 4d25 913d fcdd 02bd
000001d0: a621 b43d 99b7 5e3e e3a1 933e f311 a43d
000001e0: b937 8abf d2ce 6d3f c3dd d03e 16ee 88be
000001f0: 5acf 893e f6bd 55bc 9995 4d3e 215d e5bc
00000200: 82ab 063f ece7 2dbe 1ee4 41bd bad6 1cbe
00000210: 1850 d2bc cf17 8fbd 6d0c 90bd a009 523c
00000220: 1f75 9a3e 0c3f 9b3e 973b 3abd 5c50 9a3e
00000230: e732 583f e092 cd3c a44a d63d 8c14 c93e
00000240: c503 983e c2d6 983f fe2c b03e f45f 37bd
00000250: 614b f63e 84e1 0a3e df34 673e af44 2c3e
00000260: 8a60 5abf 371b 1fbc 0886 d93e e156 b53d
00000270: f59b 923d f01a 203e 899d 87bc c577 243e
00000280: 4bc5 333e 8778 153e dc7c 843e d367 343e
00000290: 5b10 c5bd 225b c93d 25ac 2fbe b068 0c3c
000002a0: 8c6e c13e 3da2 59bb ca06 d93d e147 813e
000002b0: 9c75 023f b8c4 1bbe 5bfa 443e 74d2 753f
000002c0: a56e 083f b94b 43ba dd17 e63d dd2d 12be
000002d0: 054b 8b3e 669e ac3e 02f1 7b3e b2b8 043e
000002e0: da35 87bf f39d 193f 4b55 c13e 85a6 30be
000002f0: f0a5 683e a018 bb3e 2d0a 1d3e 5f47 893e
00000300: ee86 9d3e 36fa e83d 9dd3 493e 23f7 323e
00000310: 20eb d0bc 95e5 1e3e 1a62 ff3d 42ac fabd
00000320: f9a3 5d3e 78c6 0f3e 0865 203d 9040 c93e
00000330: 7ba2 403f 27d2 063e 40ad dabd 08cb 253f
00000340: 4ac0 aa3e d409 d43f d434 3f3e 9e01 bf3d
00000350: acce dd3e a71f 913e ea35 713e e51c c23d
00000360: 56f3 a0bf 8a61 aa3e dfca 123f ced1 05be
00000370: 2f75 873d 7959 c23d 669c f83b 30ef 423e
00000380: 0cc3 803d 808e 933a ffe5 273d fa3b 6fbd
00000390: 7afc 75bd 3c70 04be c050 0ebd e6bd f13d
000003a0: 2dd1 603d 02bd f13c 2f0d b13c 57eb 03be
000003b0: ed25 50bd ca18 2cbe 68bf 2abe a338 08bd
000003c0: 916b a1bd 386c e9bc a426 bfbd fa4f a7bd
000003d0: 086d 07be abc0 8e3d f4ba 80bd 2028 75bd
000003e0: 75b8 85bd f188 30bd 8fb6 9b3c 6548 9f3d
000003f0: ece0 e4bc 728d b8bd fde4 ec3b 3b92 c13d
0.44162232 -0.09576143 -0.3363308 0.17655845 0.040599138 -0.037557885 -0.035049275 0.1640441
0.08933684 0.41385713 0.03589043 0.118833534 0.82071656 -0.055644207 0.17395774 0.8470159
0.42652777 0.073944755 0.09498982 -0.02611065 0.2934085 0.22377104 0.3671864 -0.045873687
-1.4080288 0.35215864 0.4554604 0.09555762 -0.082336396 0.053773593 0.29878208 -0.03301126
-0.8979196 0.114243045 0.79999816 0.036675557 0.023121446 0.1766841 0.050484523 -0.045680523
0.23870376 -0.37040785 1.3440235 0.703909 -0.26694062 0.013098016 -0.34315586 -0.01381267
-1.0909826 1.1116973 0.8639406 -0.1381793 -0.76323056 -0.85173666 -1.1999832 -0.03496815
1.221589 -0.44598043 -0.83710706 -0.99879706 0.6004242 -0.73508036 -0.64614147 0.4770827
0.53846943 0.1316681 -0.018440763 0.053672194 -0.15536392 0.16451846 -0.07634109 0.043707505
0.29277277 0.47379082 0.08040207 0.12928647 1.0126021 -0.10117184 0.27851066 -0.5018272
0.1119455 0.3511136 0.26251778 0.05617562 0.31100848 0.2392908 0.04311637 -0.14250523
0.27089378 -0.33847293 0.14439061 0.67389774 0.011502728 0.2154588 0.2769466 0.41479704
0.1316535 0.0015667826 0.20474184 0.04774268 -0.017835647 -0.0025649369 -0.10153268 0.000640437
0.43385106 -0.10419328 -0.29016292 0.35522783 0.24591574 0.017690226 -0.06017222 1.6274706
0.48462588 -0.24992138 0.07087193 -0.031949982 0.087954804 0.21749724 0.28834447 0.08011236
-1.0798255 0.9289371 0.4079419 -0.26744145 0.2691601 -0.0130457785 0.20076598 -0.027998509
0.5260545 -0.16983002 -0.04733669 -0.15316287 -0.025672957 -0.06986963 -0.0703362 0.012819678
0.3016748 0.30321538 -0.045466986 0.30139434 0.8445267 0.02509445 0.10463455 0.3927349
0.29690376 1.1940539 0.34409326 -0.044769242 0.48104385 0.1356259 0.22578762 0.16823076
-0.85303557 -0.009711078 0.4248507 0.088544615 0.07158653 0.15635276 -0.01655461 0.16061313
0.1755573 0.14596759 0.2587651 0.17617731 -0.0962226 0.09831835 -0.17155512 0.008569881
0.37779653 -0.0033208274 0.10596998 0.25250152 0.5096071 -0.15211761 0.19236128 0.9602425
0.5329383 -0.0007449943 0.1123502 -0.14275308 0.27205673 0.33714598 0.24603656 0.1296108
-1.0563309 0.60006636 0.37760386 -0.17251022 0.2271955 0.36542225 0.15335913 0.26812264
0.30767006 0.11375849 0.1970963 0.17477088 -0.025502741 0.15517266 0.12469883 -0.12239887
0.21644582 0.14040554 0.03915885 0.3930707 0.75247926 0.13166104 -0.10677576 0.64762926
0.3334983 1.6565499 0.18672496 0.0932648 0.4332174 0.2834446 0.23555723 0.094781674
-1.257426 0.3327754 0.57340807 -0.13068315 0.06614148 0.09489722 0.0075870035 0.19036555
0.06287202 0.0011257678 0.040990826 -0.058406807 -0.060055234 -0.12933439 -0.034744978 0.118037984
0.054886986 0.029509071 0.021612732 -0.12882744 -0.05081742 -0.16806331 -0.16674578 -0.033257138
-0.07881845 -0.028493986 -0.09333542 -0.08169551 -0.13225186 0.06970342 -0.062856585 -0.05985272
-0.06529323 -0.043099348 0.01900795 0.0777748 -0.027939282 -0.090113536 0.007229446 0.094517194

hidlayer.bias f4 [64]
00000000: 7ab9 c53c 2142 063f 7268 823d 2dd5 7a3e
00000010: 523a 173e e84c 7d3e 42ce 723e adda 963d
00000020: 3d4c 7a3e 9c57 92bd b22c 193e 8b86 2c3e
00000030: 7180 77bf 84b1 4e3e 1148 703e 8814 933d
00000040: 8696 5b3f d07e 613e 6f69 2c3e cef2 3e3c
00000050: 7f4a e63b e12c af3d 8f01 34bc 7b11 313f
00000060: 20e6 7e3d c1f5 bcbd 952d 03be e4f1 0b3d
00000070: f0f2 42be 3c5f 7abe 9535 863e 56c9 2a3d
00000080: e769 8a3c 92bb 8f3d cad9 b9bd 7459 993b
00000090: 4f01 95bd 9e2e fb3d 9aca 373e 385f e6bb
000000a0: d497 01bc ba1d ccbd 2c01 0a3d b06a 73bd
000000b0: 234b 7f3e f47d 0b3e 827d 023e c7b9 2ebe
000000c0: c715 57be f889 c73e d15b 95be bb79 6c3b
000000d0: e5e5 793e 13f2 a13a 64ed 2cbd 8323 02be
000000e0: c7d7 dfbc fb57 313e 9cf9 f23d 4266 29be
000000f0: ab59 e23b d256 25be 8d3f c33c c61c 343d
0.024136294 0.52444655 0.063675776 0.24495383 0.14768341 0.24736369 0.23711494 0.07365928
0.24443145 -0.071456164 0.14958456 0.16848199 -0.9668036 0.20184904 0.23464991 0.071816504
0.85776556 0.22021031 0.16837095 0.011654569 0.0070279236 0.08553482 -0.0109867 0.691673
0.062231183 -0.09226561 -0.12810357 0.03416623 -0.19037986 -0.24450392 0.26212755 0.041695915
0.016896201 0.07018198 -0.09074743 0.004679853 -0.0727564 0.12264751 0.1794838 -0.007030394
-0.007909734 -0.099666074 0.033692524 -0.059427917 0.24931006 0.13622266 0.1274319 -0.17063056
-0.21004401 0.3897245 -0.29171613 0.00360833 0.24404104 0.0012355469 -0.04221858 -0.12708859
-0.02732457 0.17318718 0.118640155 -0.16542915 0.006907662 -0.161464 0.023834014 0.043972753

hid2layer.weight f4 [128, 64]
00000000: 6c77 ac3f 78ce b23f 2316 be3f be4f 9a3e
00000010: 716d 9c3f caee 713e cc9d af3f c615 87bd
00000020: 1b60 a23f 103b 33bd c1c8 b83f d97b b63f
00000030: 9236 bf3f ea11 c03f 46c4 af3f 3f21 953f
00000040: 32ce 523e df64 b33f 184c bb3f 7693 dc3f
00000050: 0b25 953f 3631 163f c1c5 d23f f3b0 f0bf
00000060: 0d4b ad3f b782 b7bf 4638 cf3d e028 c6bb
00000070: 0b8b b93f 10bc cf3f e380 3d3f 83b4 b83f
00000080: cc6f 903d b18c 9a3f 2077 eb3d 5a42 c53f
00000090: a2ac 133d ce5b 82bd 0eab cd3f e900 d43f
000000a0: 94d1 533d b220 ba3f feaa c03d d093 f23c
000000b0: 440e 9f3f 9769 b73f 096c 9c3f 4807 b63f
000000c0: 72dc b33f ec19 be3f 1ef8 b63f e14e cc3f
000000d0: 8ecc c73f ec3c b03f 8641 26bf c6be db3f
000000e0: af2a b63f 644b af3f cc38 ba3f f2c2 c4bd
000000f0: f665 ae3f 30e3 8a3d 0866 e63f 6528 8dbd
00000100: 3ec8 673e 51b9 8b3f f59f 413e b2f9 3d3b
00000110: 18cf b23d a264 163e d073 633e b153 e0bd
00000120: c9e7 df3c e0ee ad3d 3242 953f d1c5 823d
00000130: e8e1 a63f 4e72 883d 0de3 ac3d bc01 d63d
00000140: f3eb 31bf a56e ea3d 3f9a 3f3e d1bf 5e3e
00000150: ebc1 c03d 2503 cd3d 738d dd3e 5345 00c0
00000160: c4ec 583e f760 b6bf a46b 163d 246b 3abd
00000170: 21af 7a3e 0df2 293e 96db f13d 72ed 723e
00000180: f8d8 593c b288 323e f00d 21bc fb9e bd3c
00000190: d59c b73d 8015 01bb ccb9 433e 1010 693e
000001a0: 8c1c c73d dc53 9a3e 4e54 9d3d 58bd d73c
000001b0: 0437 343e 1c22 c13d 1d64 f03d 999c 503e
000001c0: dd1d d23e e216 913f 220d f83e f4de a53e
000001d0: bc15 d13d 3595 f13d f732 2bbf e5b5 0a3f
000001e0: fe28 ea3d 7f64 af3d f55c 033e e0a0 3f3c
000001f0: 356b 5f3e 3a97 c03d a049 0d3f dd15 f33d
00000200: fe7b 96c0 91e4 823f 0962 5cbd 32a7 4ebf
00000210: 7cf7 923f 219c 67bf e814 823f 74b9 e6bd
00000220: aa70 fbbe fea5 f53d 4514 5c3f 8541 8d3f
00000230: 30ee 2d3c e5dc 8bbf 5802 6abe 1b6e 9e3f
00000240: 348b 6cbf bb8d 1a3d 44c2 61bf 4535 2abe
00000250: cd5c 15bf 43a0 823d dd10 1cbe f684 c7be
00000260: 8181 ab3f 4024 83be 7e7c c93d b8ba 9bbd
00000270: d119 e2bd 51be debf bbf5 9cbd 6aed 6d3e
00000280: 1a95 d6bd f663 10be 9468 453d 4600 69bf
00000290: 3a1b b93d 36d1 dabd e1a0 32bf 74d2 02bf
000002a0: f4da 14bd d744 a1c0 d4cf 36bd 9c12 c03d
000002b0: 8c29 eabe 0700 20bf 084b 28be 12f2 93be
000002c0: 0899 0fbe 4303 803f a20e 2a3c b7d3 95bd
000002d0: c5dd 61be 5977 9f3f 0c09 1e40 f1fd 083d
000002e0: c819 79be 71ff 74bf 8bed 5c3f 7086 653d
000002f0: ea72 83bf 4c27 7c3d 4ad1 bb3d 5471 ed3d
00000300: 9b1d 133e 078b ab3f 9581 383e af73 8a3e
00000310: b9e8 553e 0a39 923e 397b 1d3e 8abb 6dbd
00000320: c447 d73d 8004 78bd bc93 9f3f 5138 a43e
00000330: 85b7 ac3f c782 fc3d e467 963e c0e5 8d3e
00000340: b72f 81bd d16e 3f3e 7c28 3d3e 8436 9a3e
00000350: eaab 5f3e d869 433e cac5 db3e 97fd d7bf
00000360: f3ae 8b3e 069e afbf 28ab b8bd 8042 893c
00000370: d566 953e 05cb 273e de3e 953e 3832 9d3e
00000380: 2001 113d c4ae a13d c99e dbbd 5864 803e
00000390: 0ad1 cbbd 101d 58bd 0ace 493e a3e0 af3e
000003a0: 7842 393d 218b 5e3e 9275 c13d a060 1f3c
000003b0: 78f1 083e fa0e c73d 298b 8d3e d352 ad3e
000003c0: d2f5 d63e e814 b13f 18b3 b53e 54a9 d03e
000003d0: b0ca 803e 5fc2 9f3d 5dbe 04bf f2d0 193f
000003e0: c01e 393e 1da8 673e f2d2 e33d 28d5 fabd
000003f0: ed5f 983d a426 a43d 4562 123f d606 b23c
1.3473945 1.3969259 1.4850506 0.30138963 1.2220899 0.23626247 1.3720031 -0.0659595
1.2685579 -0.0437575 1.4436265 1.4256545 1.4938529 1.5005467 1.3731773 1.1650771
0.2058647 1.4015158 1.4632597 1.7232502 1.165193 0.5866884 1.64666 -1.8804001
1.3538529 -1.4336766 0.10118155 -0.006047353 1.4495558 1.6229267 0.7402479 1.4430088
0.070525736 1.2074186 0.11497331 1.5410874 0.036053307 -0.063651666 1.6067827 1.6562778
0.05171354 1.4541228 0.09407614 0.029611498 1.2426229 1.4329098 1.222047 1.4220972
1.405165 1.4851661 1.4294469 1.5961572 1.56093 1.3768592 -0.6494373 1.7167594
1.4231776 1.3694882 1.4548583 -0.09607495 1.3624866 0.06781614 1.7999887 -0.0689247
0.2263498 1.0915929 0.18908675 0.0028987941 0.08730906 0.14686826 0.22212148 -0.10953463
0.027332203 0.084928274 1.1660826 0.06385387 1.3037691 0.06662427 0.08441744 0.104495496
-0.69500655 0.11446885 0.18711184 0.2175286 0.09411987 0.100103654 0.4327198 -2.0042312
0.21184069 -1.4248341 0.036723748 -0.045512334 0.24480869 0.16596241 0.11809461 0.2372339
0.013296358 0.17434958 -0.009829983 0.023147097 0.0896546 -0.0019696653 0.19113845 0.22760034
0.09722242 0.30142105 0.076820955 0.026335403 0.17599112 0.09430334 0.11737845 0.20372237
0.4103841 1.1335108 0.4844752 0.32396662 0.10209224 0.11796037 -0.6687464 0.541838
0.114336 0.0856409 0.12828429 0.01169607 0.2181824 0.09403844 0.5519047 0.118694045
-4.702636 1.0226003 -0.05380443 -0.8072387 1.1481776 -0.9047261 1.016263 -0.11265841
-0.49109393 0.11994551 0.8596843 1.103562 0.01061587 -1.0926787 -0.22852457 1.2377352
-0.9239991 0.03773282 -0.8818705 -0.16621883 -0.5834473 0.06378224 -0.15240808 -0.3896863
1.3398896 -0.25613594 0.09838198 -0.07603973 -0.1104008 -1.740183 -0.07664057 0.23235098
-0.104776576 -0.14100632 0.048195437 -0.9101604 0.09038396 -0.10684435 -0.6977673 -0.51102376
-0.036341622 -5.0396533 -0.044631794 0.093785495 -0.45734823 -0.6250004 -0.16434872 -0.28895622
-0.1402322 1.0000995 0.010379465 -0.07315772 -0.22057255 1.2458297 2.4693022 0.033445302
-0.24326241 -0.9570227 0.8629996 0.056036413 -1.0269444 0.061560914 0.09170778 0.11593881
0.14366762 1.3401803 0.18018182 0.27041385 0.20889558 0.28559142 0.15379037 -0.05804018
0.10511735 -0.060551167 1.246696 0.32074216 1.3493506 0.12329631 0.29376137 0.27714348
-0.06307929 0.18694617 0.18472475 0.30119717 0.21842924 0.19083345 0.4292434 -1.6874264
0.27281913 -1.37201 -0.090170205 0.016755342 0.29180017 0.1638604 0.29149526 0.30702376
0.035401464 0.07894662 -0.10723645 0.25076556 -0.099519804 -0.05276209 0.19707504 0.34351072
0.045229405 0.21732761 0.09446253 0.009727627 0.13373363 0.097196534 0.27645233 0.33852252
0.4198442 1.3834505 0.354882 0.40754187 0.25154638 0.07800745 -0.5185297 0.6008445
0.18078136 0.22622724 0.11124219 -0.122476876 0.074401714 0.080151826 0.571812 0.021731775

hid2layer.bias f4 [128]
00000000: a767 1bbf 202f 233d d46e 41bf 2d5e 2e3e
00000010: 125c c4bd 0f65 393e 0357 8e3b e63a 48bd
00000020: 7e90 ec3d fd6c 123d 4439 2cbd 8356 9c3d
00000030: bea5 88bf 4de4 1dbf 4a3d b7ba 3f89 6ebe
00000040: 9387 4e3d 9580 29be 6ce0 a03d c7c4 693b
00000050: e00a acbd bab5 e43e 3a58 c83c 5e6d 46bd
00000060: ca40 87bd 5168 353e b77d 223e 6b58 973d
00000070: a9ee a63c ba11 f8bc 06da b23d 96ac 31bd
00000080: 20ad 453e 0a2f 943d 1536 e03d 2ee3 d7bd
00000090: 3fe7 093c 2baf 203c a541 f839 b8fc be3d
000000a0: 386b ccbc b8be 8f3d b3db 2c3f bb70 9a3b
000000b0: fc5b 7cbc fc96 02be b29a 1f3d 9fe2 283e
000000c0: ce80 a63d c1b8 9d3d 3260 b83d 40ce 073c
000000d0: b0d0 2a3d cb60 12be e813 e5bd c3b6 a3bb
000000e0: e383 ac3d c23b 43bd 63d9 8f3d c08f f3bd
000000f0: 0819 8b3d 6e87 d33d 5918 093d 2896 9c3c
00000100: a56e ad3d c5d3 1cbc 3893 03be d5b7 9dbc
00000110: ed93 37be aaa9 dfbd b040 88bc f747 b13d
00000120: 96ab 2abd 643a 943d b7e9 a4bd d11c 503d
00000130: 4b5c 05be cb87 57bd c828 d3bd 4f8b f1bd
00000140: a572 373f f320 6e3d 521c c73d d0c1 27c0
00000150: 9fe6 c2bc 6253 2fbd 2467 0fbe 7b83 05bf
00000160: 7d9d 6f3c 70dd 7e3d 11ae 1ebe df1d 263e
00000170: 57e5 f63d 60d8 a33d f6af d5bd d055 bbbc
00000180: e44f d53d e85b 123c 115c 793d 2d3a 86bd
00000190: 30f0 a9bd ac41 6ebd 31e5 0f3d 7aa0 7d3d
000001a0: 8cc7 0d3e 0030 35bc 2393 dd3d 116c eebe
000001b0: 025b 18bd 1c85 933d 62bf 2cbd c847 dc3d
000001c0: 2b1b 693d 7065 a5bd d951 eb3d 49b8 ccbd
000001d0: 5532 513d 83c6 0f3e 3277 7d3d 631d ac3d
000001e0: a815 a9bf a364 c13f 4aaf 823e ba55 ce3d
000001f0: 40d5 6f3d 54d4 7e3d 48b7 9b3d 58bf 2dbe
-0.60705036 0.039839864 -0.75559735 0.17028113 -0.095878735 0.18104957 0.0043438687 -0.048884295
0.11550997 0.03574847 -0.0420468 0.07633688 -1.067558 -0.61676484 -0.0013980058 -0.23294543
0.050422262 -0.16552956 0.07855305 0.0035670267 -0.08400512 0.44669896 0.024456132 -0.048444144
-0.066041544 0.17715575 0.15868269 0.07389911 0.020377474 -0.03028189 0.08732991 -0.04337748
0.19304323 0.072355345 0.10947815 -0.10541378 0.00841695 0.009807388 0.00047351155 0.09325546
-0.02495347 0.070187986 0.67522734 0.0047131456 -0.01540279 -0.12752908 0.03896589 0.16492699
0.08130036 0.07701255 0.09002723 0.00828892 0.041702926 -0.14294736 -0.111854374 -0.004996152
0.08423593 -0.04766441 0.07023885 -0.118926525 0.06791884 0.103285655 0.033470485 0.019114569
0.084683694 -0.009571974 -0.12849128 -0.019252697 -0.17927523 -0.10921033 -0.016632408 0.08656304
-0.041667543 0.072377 -0.0805239 0.05080873 -0.13023488 -0.052619737 -0.10310513 -0.11794149
0.7165931 0.05813689 0.097221985 -2.6212044 -0.02379161 -0.04280413 -0.14004189 -0.5215375
0.0146249505 0.062222898 -0.15496089 0.16222332 0.12055462 0.08000255 -0.104339525 -0.022868067
0.104156286 0.008933045 0.060878817 -0.06554065 -0.08297765 -0.0581681 0.035130683 0.06192062
0.13845652 -0.011058807 0.1081908 -0.46566823 -0.037196167 0.07203123 -0.042174704 0.10755879
0.056910675 -0.08075988 0.114902206 -0.09996087 0.05107339 0.1404057 0.06188125 0.084040426
-1.3209734 1.5108837 0.2552436 0.10074945 0.05855298 0.06221421 0.076033175 -0.16967523

outlayer.weight f4 [1, 128]
00000000: f183 d13f 5ba3 273f 8570 58c0 4765 ed3e
00000010: 0ca8 0ebd 989f 99c0 9c03 183f 5db5 393f
00000020: f3fd 013f edf5 34bc d68e 273f f812 123f
00000030: 4600 2840 6d3f e0bf 0ae3 23bc ac67 7dbf
00000040: a669 0d3f 6c2e 413f 19f7 d8c0 f4fa 2ec0
00000050: b298 89bc 233e ab3f 0245 da3e 0470 1e3f
00000060: 8d1e 0e3f ab90 033f 45d1 6fc0 27e1 99bc
00000070: 7498 0a3f bca1 8fbf 5368 c1bc 82c0 6fbd
00000080: 0a0f e13e fbbb 12bd b813 e23e 371e 833d
00000090: 5b30 0f3f ab8f 42bd af6c 92bd 4d69 d9c0
000000a0: 936c 9f3d ff0f 113f 4198 29c0 1c85 3ebc
000000b0: ce83 54bf 096c 33c0 4df6 1a3f f884 e93e
000000c0: d6c6 88bd 2f76 8bbc 2da9 79bd 4bf8 833d
000000d0: f6a9 00bd 8d51 153f 4911 76ba f624 123f
000000e0: d6a5 02bd 27d2 babc bd76 023f 4435 26bd
000000f0: 7585 293f 257c e9bc 2a2f fa3e 38eb 40bd
00000100: 3628 003f e9be 33bd 2a5f 25c0 9e7a 263f
00000110: e584 243f 8df1 a83d 24f7 49bd dc76 f43e
00000120: 3253 143f 7c6b 103f 0831 e3bb 2ca3 11bd
00000130: 6330 88bd ff4c 053f 0092 b53a a519 0c3f
00000140: 0baf b6c0 1366 113f f123 2b3f 54ac bfc0
00000150: 2b5c 423f b131 0e3f eb11 213f 7cb9 b4c0
00000160: 30cd 8ebc 7898 903c 954f 4e3f d7c8 f03e
00000170: 53a6 003f fddd 213f ea9b 763d c4f1 18bd
00000180: 07df 44be a70e 84bd 5763 113f ceee 033d
00000190: 166e 203f ceb5 95ba e15d 2f3f 45bb 253f
000001a0: 8d26 d03e d164 1ebd 129c 233f f4d6 e2bf
000001b0: 80a2 88bd e1d4 0a3f 1dc8 aabb 617f 60bd
000001c0: afb3 71bd 7153 0e3f eb7c ee3e d261 28bd
000001d0: e632 253f 428e e53e 74a8 413f f600 d6bb
000001e0: b448 1d40 3b93 4840 c9d1 f1be 50e6 88bd
000001f0: 60e4 c53c 17e6 1c3f fbc8 a1bc dae9 223f
1.636839 0.65483636 -3.3818676 0.4636633 -0.03482823 -4.8007317 0.5938051 0.72542363
0.5077812 -0.011044961 0.65452325 0.57060194 2.6250167 -1.7519356 -0.010002861 -0.98986316
0.5523933 0.7546146 -6.7801633 -2.734067 -0.016796444 1.3378338 0.42630774 0.6188967
0.55515367 0.5139262 -3.7471478 -0.018784119 0.54138875 -1.1221232 -0.023609316 -0.0585332
0.43956786 -0.035823803 0.4415567 0.064022474 0.5593316 -0.047500294 -0.07149636 -6.794104
0.07784381 0.56665033 -2.6499178 -0.011628415 -0.8301362 -2.803469 0.60532075 0.4560926
-0.0667855 -0.017024128 -0.060952354 0.064438425 -0.031412087 0.5832756 -0.0009386731 0.5708765
-0.031896435 -0.022805287 0.5096243 -0.04057814 0.66219264 -0.02850158 0.48864108 -0.047099322
0.5006136 -0.043883238 -2.5839334 0.6503085 0.6426528 0.08249197 -0.049307957 0.47746933
0.57939446 0.5641401 -0.006933335 -0.035556003 -0.06649854 0.5207061 0.0013852715 0.5472663
-5.7088675 0.5679638 0.6685172 -5.989786 0.7592189 0.55544573 0.62917966 -5.647642
-0.017431825 0.017650828 0.8059018 0.4702823 0.5025379 0.6322935 0.060207285 -0.03733994
-0.19225703 -0.06448107 0.56792206 0.032210164 0.6266798 -0.001142198 0.6850262 0.64738876
0.40654412 -0.038670365 0.6391002 -1.7721848 -0.066716194 0.5423108 -0.0052118436 -0.054808978
-0.05900925 0.5559607 0.4657968 -0.041108914 0.6453079 0.44835097 0.75647664 -0.0065308763
2.4575624 3.1339862 -0.47230366 -0.066845536 0.02415675 0.6128859 -0.019749155 0.6363808
